…
,"output_type":"execute_result","data":{"text/plain":"device(type='cuda')"},"metadata":{}}]},{"cell_type":"code","source":"model.to(device)","metadata":{"execution":{"iopub.status.busy":"2024-10-29T07:07:51.247417Z","iopub.execute_input":"2024-10-29T07:07:51.247786Z","iopub.status.idle":"2024-10-29T07:07:51.452566Z","shell.execute_reply.started":"2024-10-29T07:07:51.247748Z","shell.execute_reply":"2024-10-29T07:07:51.451538Z"},"trusted":true},"execution_count":16,"outputs":[{"execution_count":16,"output_type":"execute_result","data":{"text/plain":"Autoencoder(\n  (encoder): Sequential(\n    (0): Conv2d(3, 16, kernel_size=(3, 3), stride=(2, 2), padding=(1, 1))\n    (1): ReLU()\n    (2): Conv2d(16, 32, kernel_size=(3, 3), stride=(2, 2), padding=(1, 1))\n    (3): ReLU()\n    (4): Conv2d(32, 64, kernel_size=(3, 3), stride=(2, 2), padding=(1, 1))\n    (5): ReLU()\n    (6): Conv2d(64, 128, kernel_size=(3, 3), stride=(2, 2), padding=(1, 1))\n    (7): ReLU()\n    (8): Conv2d(128, 256, kernel_size=(3, 3), stride=(2, 2), padding=(1, 1))\n  )\n  (decoder): Sequential(\n    (0): ConvTranspose2d(256, 128, kernel_size=(3, 3), stride=(2, 2), padding=(1, 1), output_padding=(1, 1))\n    (1): ReLU()\n    (2): ConvTranspose2d(128, 64, kernel_size=(3, 3), stride=(2, 2), padding=(1, 1), output_padding=(1, 1))\n    (3): ReLU()\n    (4): ConvTranspose2d(64, 32, kernel_size=(3, 3), stride=(2, 2), padding=(1, 1), output_padding=(1, 1))\n    (5): ReLU()\n    (6): ConvTranspose2d(32, 16, kernel_size=(3, 3), stride=(2, 2), padding=(1, 1), output_padding=(1, 1))\n    (7): ReLU()\n    (8): ConvTranspose2d(16, 3, kernel_size=(3, 3), stride=(2, 2), padding=(1, 1), output_padding=(1, 1))\n  )\n)"},"metadata":{}}]},{"cell_type":"markdown","source":"# Train autoencoder for shoes bags dataset","metadata":{}},{"cell_type":"code","source":"import torch.optim as optim\n\n#criterion = nn.MSELoss()  # Mean Squared Error loss for reconstruction\noptimizer = optim.Adam(model.parameters(), lr=1e-3)","metadata":{
…
